software/analysis/interpretability/fnn/neural_network_model.pth (torch, 696596 bytes, 48 tensors)

network.0.weight f4 [256, 30]
0	0x3d1faa6f	0.038980898
1	0xbd9b141e	-0.075721964
2	0xbd8640b1	-0.06555308
3	0xbe139db6	-0.1441563
4	0x3d98ce16	0.07461183
5	0xbc642b00	-0.013926268
6	0x3ded3a61	0.115834005
7	0x3e54e6c6	0.20791158
8	0x3e125524	0.14290291
9	0x3df8a49e	0.12140773
10	0xbe6b52c8	-0.22980797
11	0xbcc00a85	-0.023442516
12	0xbdc4d248	-0.096104205
13	0xbd890ffe	-0.066925034
14	0x3c39bb47	0.011336154
15	0xbd1b5a7f	-0.0379281
16	0x3db5884f	0.088638894
17	0xbd83bf37	-0.06432956
18	0xbcc98705	-0.024600515
19	0x3d881b37	0.06645816
20	0xbd11f9d9	-0.035638664
21	0x3d59306c	0.053024694
22	0x3d220e2f	0.039564308
23	0xbd0de32f	-0.034640487
24	0xbc9074f3	-0.01763389
25	0xbd4883b4	-0.048953727
26	0x3c02093e	0.007936774
27	0xbdf954f7	-0.12174409
28	0xbd30ac35	-0.04313298
29	0x3e3d874a	0.1850864
30	0xbd954f6d	-0.0729054
31	0x3db44dd5	0.08803908
32	0x3e22e399	0.15907134
33	0xbd06979c	-0.03285943
34	0x3dc927ff	0.09822082
35	0x3de726da	0.11286707
36	0xbe21a076	-0.15783867
37	0xbdf170cc	-0.117890924
38	0xbde5873d	-0.11207435
39	0xbdbf148b	-0.0933009
40	0xbdd97c05	-0.10619358
41	0xbd63300e	-0.05546575
42	0xbd3b8687	-0.045782592
43	0x3cadda7c	0.021222346
44	0xbdb3e599	-0.08784027
45	0xbe0ae0e4	-0.13562351
46	0xbe2a3e0c	-0.16625232
47	0x3e0e4e39	0.13897027
48	0xbd7d97c3	-0.06191231
49	0x3ca55ce3	0.020185893
50	0x3dd375d6	0.1032521
51	0x3dd53061	0.10409618
52	0xbe1b0374	-0.15138036
53	0xbb7c0ad6	-0.0038458607
54	0xbdb87e23	-0.09008434
55	0xbe16e2cb	-0.14734952
56	0xbd94be4c	-0.07262859
57	0xbe501374	-0.20319921
58	0x3d64fa34	0.055902675
59	0xbba10a92	-0.00491459
60	0x3c65bd95	0.014022251
61	0xbd878c7f	-0.066185944
62	0x3cf325ed	0.02968117
63	0x3d8c59d0	0.06853068
64	0x3dfc74e8	0.123269856
65	0x3e3b88d3	0.18313913
66	0xbdda661f	-0.10664009
67	0xbe0ff77c	-0.14059252
68	0xbe456c4d	-0.19279595
69	0x3dfa1a77	0.12212079
70	0x3e2dc3a4	0.16969162
71	0x3d80f614	0.06296936
72	0x3db559c4	0.08855012
73	0x3c7a40ae	0.01527421
74	0xbdb322f4	-0.08746901
75	0x3d64882b	0.055793922
76	0x3dc0110f	0.09378254
77	0x3e0f39e2	0.13986924
78	0x3daf9de8	0.0857504
79	0xbcd439e0	-0.025906503
80	0x3e45829a	0.19288102
81	0x3c353d92	0.011062043
82	0x3dbad757	0.09123104
83	0x3c847f83	0.016174084
84	0x3ca08eae	0.019599285
85	0xbde15b75	-0.11003772
86	0x3ca47410	0.020074874
87	0xbdf9d1c6	-0.12198214
88	0xbe3ef1dd	-0.18646951
89	0x3e52e3a1	0.20594646
90	0x3e2fc6c9	0.17165674
91	0x3dd31ed5	0.10308615
92	0x3da3887d	0.079850174
93	0x3def998d	0.11699209
94	0xbdbc6fd6	-0.092010185
95	0xbdef51a6	-0.11685495
96	0xbce96f02	-0.028495315
97	0x3e0ae1e5	0.13562734
98	0xbd553252	-0.052049942
99	0x3d9182e0	0.071050406
100	0xbc600450	-0.013672903
101	0x3d8167ad	0.06318603
102	0xbe06db06	-0.13169488
103	0xbe09563b	-0.134118
104	0xbc1b9ca7	-0.009497798
105	0xbd0fe0b0	-0.035126388
106	0x3e14bbb8	0.14524734
107	0xbdd45660	-0.10368037
108	0xbd9b1f75	-0.07574359
109	0x3c7fdcef	0.0156166395
110	0xbdc2a78b	-0.095046125
111	0xbe5cdf44	-0.21569544
112	0x3de829b3	0.113360785
113	0x3d959410	0.07303631
114	0xbce1f5c5	-0.027583012
115	0xbe191a3f	-0.14951418
116	0xbdee32fe	-0.1163082
117	0xbb39a840	-0.0028329045
118	0x3d1a2540	0.03763318
119	0xbdea13b0	-0.11429536
120	0xbcf0a97c	-0.029377691
121	0xbd344566	-0.044011496
122	0xbe5a3ec5	-0.21313007
123	0x3e146829	0.14492859
124	0xbd05fa27	-0.032709267
125	0x3dc7d57a	0.09757514
126	0xbd98f8d1	-0.07469333
127	0xbe5291d9	-0.20563449
128	0x3d279499	0.0409132
129	0xbce95d61	-0.02848691
130	0xbd8c1ffb	-0.06842037
131	0x3e44a733	0.19204406
132	0x3a121e1f	0.00055739464
133	0x3b74ba54	0.0037342506
134	0x3dfef38c	0.12448797
135	0x3e55e535	0.20888217
136	0xbdc23670	-0.094830394
137	0xbd443a23	-0.047907006
138	0xbd855a79	-0.06511397
139	0x3dc65e7d	0.09685991
140	0x3c976567	0.01848097
141	0xbe8fa499	-0.28055266
142	0x3c3fbe0b	0.011703025
143	0x3da107ce	0.07862817
144	0x3d9bf4f2	0.07615079
145	0xbc8b0b71	-0.01697323
146	0xbd11c448	-0.03558758
147	0xbe391b79	-0.18076886
148	0x3cee7bfc	0.029111855
149	0xbd8cbec3	-0.068723224
150	0x3e0b8fee	0.13629124
151	0xbe491e93	-0.1964057
152	0xba809338	-0.00098095
153	0x3dd9f2a0	0.1064198
154	0xbd171154	-0.03688176
155	0x3e1a0c25	0.15043695
156	0xbdb48958	-0.08815259
157	0x3e093e55	0.13402684
158	0x3dbcd81e	0.092209086
159	0xbe49c4f0	-0.19704032
160	0x3df54bbd	0.119773366
161	0xbdeb0ed7	-0.1147744
162	0xbd8c2c19	-0.068443485
163	0xbd1bde12	-0.03805358
164	0xbc3cc7e3	-0.011522266
165	0xbcec75ca	-0.02886476
166	0x3d919009	0.07107551
167	0x3e077c33	0.13230972
168	0x3e35e495	0.17762978
169	0xbccadb48	-0.024762765
170	0x3e838b59	0.2569225
171	0xbe518543	-0.20460992
172	0xbdd8913f	-0.105745785
173	0x3da14ab6	0.07875578
174	0x3d21070f	0.039313372
175	0xbd61d14d	-0.055131245
176	0xbd3c1036	-0.045913897
177	0xbe29eaf3	-0.16593532
178	0x3d6c5996	0.057702623
179	0xbd99dd50	-0.07512915
180	0xbbd7a8ff	-0.006581425
181	0xbdc93b93	-0.09825816
182	0xbdacfae6	-0.084462926
183	0x3e043dd8	0.12914217
184	0xbe2a47f4	-0.1662901
185	0xbdf1251a	-0.11774655
186	0x3c6ed730	0.014577672
187	0xbd65a953	-0.056069683
188	0xbdde07be	-0.108413205
189	0x3d7799c9	0.060449395
190	0x3df330a4	0.11874512
191	0x3df35c6d	0.11882863
192	0xbe0ddf93	-0.13854818
193	0x3ddea137	0.10870593
194	0xbdb6e38c	-0.0893012
195	0xbd4aaf4c	-0.049483582
196	0xbd84dc60	-0.06487346
197	0x3e233cf7	0.15941225
198	0xbdb56de8	-0.088588536
199	0xbdf3e8d0	-0.1190964
200	0xbe286bb2	-0.16447333
201	0xbd6ba0c4	-0.057526365
202	0x3cb5186c	0.022106372
203	0x3dad17d5	0.08451811
204	0xbce3ea6b	-0.02782174
205	0x3e3a3c41	0.18187048
206	0x3d92286f	0.07136618
207	0xbd112a91	-0.035440985
208	0x3e529ae3	0.20566897
209	0xbd841f8f	-0.06451332
210	0xbe53688f	-0.20645355
211	0x3e14eb39	0.14542855
212	0xbda642ff	-0.08118247
213	0xbbcc762b	-0.0062396727
214	0xbdb4eca5	-0.08834199
215	0xbddfbff5	-0.10925285
216	0xbdb0e475	-0.08637325
217	0x3e363bb4	0.17796212
218	0x3dae24ee	0.085031375
219	0xbde58842	-0.1120763
220	0xbd6b4710	-0.057440817
221	0xbc499842	-0.0123043675
222	0x3d814e76	0.06313793
223	0xbcf8cf17	-0.030372186
224	0x3dcb7a77	0.09935468
225	0xbe1ac20c	-0.15113086
226	0xbd5861eb	-0.052827757
227	0x3e4bea50	0.19913602
228	0x3ddd47e3	0.10804727
229	0xbbd1eb05	-0.0064061903
230	0x3db3e81e	0.08784507
231	0xbc8c1adf	-0.017102657
232	0xbc8ff273	-0.017571663
233	0xbdb7e47f	-0.08979129
234	0x3d37d39a	0.044879533
235	0x3dd69fd3	0.10479703
236	0x3e22c635	0.15895922
237	0x3ddbdbdb	0.107352935
238	0xbdd354b9	-0.10318894
239	0xbd1cf035	-0.038315017
240	0x3ddd801e	0.10815452
241	0x3d92c630	0.071667075
242	0x3e2b7dcb	0.16747205
243	0x3c95eac9	0.01830043
244	0x3db6c5ee	0.08924471
245	0x3cd3fbd4	0.025876917
246	0xbd4034dc	-0.04692541
247	0x3cedadbc	0.029013507
248	0xbe3f2112	-0.18664959
249	0xbe4fd507	-0.20296107
250	0x3e133864	0.1437698
251	0xbc570f9c	-0.01312628
252	0x3cf650bf	0.0300678
253	0xbc14bb3c	-0.009077843
254	0x3cb6d175	0.022316674
255	0x3de807f3	0.11329641

network.0.bias f4 [256]
0	0xbde802a4	-0.11328629
1	0xbe3e0740	-0.18557453
2	0xbe03da7d	-0.12876315
3	0xbd48da2e	-0.049036197
4	0xbcb42f6d	-0.02199527
5	0xbce96227	-0.028489185
6	0xbe4c728b	-0.1996557
7	0xbdfb9a37	-0.122852735
8	0xbe0afcad	-0.1357295
9	0xbd1d176e	-0.038352422
10	0xbd0e1249	-0.034685407
11	0xbdc16492	-0.094430104
12	0xbe05ef54	-0.13079578
13	0xbe32a90e	-0.17447302
14	0xbe64c10c	-0.22339267
15	0xbea647b1	-0.3247657
16	0xbe0f0014	-0.13964874
17	0x3d728a96	0.059214197
18	0xbdb1107b	-0.086457215
19	0xbe757a4f	-0.23972438
20	0xbe3cde2b	-0.18444125
21	0xbe603452	-0.21894959
22	0xbde8f64f	-0.11375105
23	0x3c0000a4	0.007812653
24	0xbd605d80	-0.05477667
25	0xbdfc2998	-0.12312621
26	0xbdaa7294	-0.08322635
27	0xbd48d128	-0.049027592
28	0xbe1de131	-0.15417935
29	0xbe633cba	-0.22191134
30	0xbe430fcb	-0.19048993
31	0xbe3f5e0a	-0.18688217
32	0x3d577d41	0.052609686
33	0xbcf09b6f	-0.029370992
34	0xbc64110f	-0.013920083
35	0xbc6e7914	-0.014555234
36	0xbe259aca	-0.16172329
37	0xbe9b379a	-0.30315858
38	0xbe5a42f3	-0.21314602
39	0xbe74f71d	-0.23922391
40	0xbe37a48e	-0.17933866
41	0x3d97424b	0.07385691
42	0xbdd2d655	-0.10294787
43	0xbe6c8592	-0.23097828
44	0xbdf88167	-0.121340565
45	0xbd8d20d6	-0.068910286
46	0x3de3fceb	0.11132225
47	0xbe5995a6	-0.21248493
48	0xbd689311	-0.05678088
49	0xbea26ac6	-0.31722087
50	0x3c3d68c8	0.011560626
51	0xbea71e07	-0.32640097
52	0xbe68d4ac	-0.22737378
53	0xbe6250ba	-0.22101107
54	0xbe5c99df	-0.21543072
55	0xbcc8e81d	-0.024524743
56	0xbe4948bd	-0.19656654
57	0x3cc3530b	0.023843309
58	0xbe200600	-0.15627289
59	0xbe3561ea	-0.17713133
60	0x3d00d3c5	0.03145196
61	0xbe69de33	-0.22838669
62	0x3e249cac	0.1607539
63	0xbe718412	-0.23585537
64	0xbde22355	-0.11041895
65	0xbe8cad60	-0.27476025
66	0xbe36d370	-0.17854095
67	0xbca2724c	-0.019829892
68	0xbe37a9af	-0.17935823
69	0xbe2e05e7	-0.16994439
70	0xbdb2f720	-0.087385416
71	0x3d02cde9	0.031934652
72	0xbe8038ba	-0.2504328
73	0xbe240524	-0.16017586
74	0xbe7a55a9	-0.2444674
75	0xbc388fce	-0.011264754
76	0xbd9e2d95	-0.07723538
77	0xbcce66d3	-0.025195515
78	0xbe5cd5fb	-0.21566002
79	0xbe120edc	-0.14263481
80	0xbe2ce240	-0.16883183
81	0xbe4db2cd	-0.20087738
82	0xbe5887f3	-0.2114561
83	0xbdd08a44	-0.10182622
84	0xbc862895	-0.016376773
85	0xbe0f8190	-0.14014268
86	0xbd75408f	-0.05987602
87	0xbe206ebb	-0.1566724
88	0xbe8308e1	-0.25592712
89	0xbe231da3	-0.15929274
90	0xbdd607ea	-0.10450728
91	0x3c9fe3b7	0.019517763
92	0xbd9a86d0	-0.07545245
93	0xbe213567	-0.15743028
94	0xbdfdb8e2	-0.12388779
95	0xbe795242	-0.24347785
96	0xbccc594c	-0.024944924
97	0xbe076415	-0.13221772
98	0xbe631b5e	-0.22178409
99	0xbb4281ae	-0.0029679346
100	0xbe616986	-0.2201291
101	0xbe1cf159	-0.15326442
102	0xbe0b6681	-0.13613321
103	0xbd0f35d3	-0.03496344
104	0xbe9b9cf1	-0.30393174
105	0xbe5e2804	-0.21694952
106	0xbe1d105a	-0.15338269
107	0xbe4044e1	-0.18776275
108	0xbc929b9e	-0.01789647
109	0xbe8badf7	-0.27281162
110	0xbe4e1268	-0.20124209
111	0xbe8a3e29	-0.2700055
112	0xbe12d710	-0.14339852
113	0x3d9082f3	0.070562266
114	0xbe3e9d7b	-0.18614762
115	0xbe59a178	-0.21253002
116	0xbe2d6e2e	-0.16936561
117	0xbda8e2d2	-0.082463875
118	0xbd333fcb	-0.04376201
119	0xbe2f1a71	-0.1709993
120	0xbe82f308	-0.25576043
121	0xbe406240	-0.1878748
122	0xbe97b753	-0.29632053
123	0xbc042bf3	-0.008067119
124	0xbdce09e6	-0.10060482
125	0xbd513e56	-0.05108484
126	0xbe4d7bba	-0.20066729
127	0xbe425d20	-0.18980837
128	0xbec0a63e	-0.37626833
129	0x3cf446de	0.029818948
130	0xbe75c113	-0.23999433
131	0xbda163c9	-0.07880361
132	0xbe8dac7a	-0.27670652
133	0xbe17bdbf	-0.14818476
134	0xbd99f8a3	-0.07518127
135	0xbd90577b	-0.070479356
136	0xbe3164a5	-0.17323549
137	0xbdf7e6c4	-0.12104562
138	0xbd9184e5	-0.07105426
139	0xbe46fd10	-0.19432473
140	0xbcd126fc	-0.025531285
141	0xbd03096c	-0.031991407
142	0xbe08d970	-0.13364196
143	0xbe44306e	-0.191591
144	0xbe138560	-0.14406347
145	0xbe6d8fa6	-0.23199329
146	0xbe1ffc6d	-0.15623637
147	0x3dc59dfd	0.096492745
148	0xbe51e16c	-0.20496148
149	0x3ddaeb20	0.10689378
150	0xbe11e327	-0.14246808
151	0x3c9efc77	0.019407494
152	0xbdf07878	-0.117417276
153	0xbe7b71d1	-0.24555136
154	0xbe917a5a	-0.2841366
155	0xbdb3ec48	-0.087853014
156	0xbde97344	-0.11398938
157	0xbe4a06e4	-0.19729191
158	0xbde14da4	-0.11001137
159	0xbe151b7d	-0.14561267
160	0xbe43641e	-0.1908116
161	0xbe3de32a	-0.18543687
162	0x3d044fdd	0.032302726
163	0xbe8573e6	-0.26064986
164	0xbe9274ed	-0.28604832
165	0xbe2e8f6f	-0.17046903
166	0xbdcd6230	-0.100284934
167	0xbd9786f1	-0.07398785
168	0xbe9aa165	-0.3020126
169	0xbe49d541	-0.19710256
170	0xbe96d6b6	-0.29460686
171	0xbdb9192c	-0.09038004
172	0x3c309634	0.010777999
173	0xbdf9a18c	-0.12189016
174	0xbe99a545	-0.30008903
175	0xbe2719c0	-0.16318417
176	0xbd4531c2	-0.048143156
177	0xbe412bfb	-0.18864433
178	0x3e3213a5	0.17390306
179	0xbd8839fd	-0.066516854
180	0x3d154592	0.0364433
181	0xbea77d36	-0.32712716
182	0xbdb24476	-0.08704464
183	0xbe2593f1	-0.16169716
184	0xbe779f54	-0.24181873
185	0xbe74e3c1	-0.23915006
186	0xbe00a0f0	-0.12561393
187	0x3bb02af2	0.005376213
188	0xbd18f9ee	-0.037347727
189	0x3c5e5be3	0.013571712
190	0xbe8184ec	-0.25296724
191	0xb9ac8bea	-0.0003291064
192	0xbe8f8820	-0.28033543
193	0xbe264c6a	-0.16240087
194	0xbe7bf98c	-0.24606913
195	0xbe7e6629	-0.24843659
196	0x3d1eb41e	0.038745992
197	0xbe46daac	-0.19419354
198	0xbdac787b	-0.08421417
199	0xbe61709b	-0.22015612
200	0x3ca6e1ac	0.02037128
201	0xbcf88b7e	-0.030339953
202	0xbebe31a5	-0.3714725
203	0xbe701ba2	-0.23448041
204	0xbec9bed6	-0.3940341
205	0xbd1f93d3	-0.038959336
206	0xbc9466df	-0.018115459
207	0xbe2b1266	-0.16706237
208	0xbc3c130b	-0.01147915
209	0xbd605bd0	-0.05477506
210	0xbe571145	-0.21002682
211	0xbdb28f85	-0.087187804
212	0xbe73b2b3	-0.23798637
213	0xbe04f513	-0.12984113
214	0xbd9de534	-0.07709733
215	0xbea79dfa	-0.32737714
216	0x3c2e7f76	0.010650506
217	0xbe00ed84	-0.12590605
218	0xbd39986d	-0.04531138
219	0xbe42651b	-0.18983881
220	0xbd6947c4	-0.056953207
221	0xbe3934e0	-0.18086576
222	0xbe510104	-0.20410544
223	0xbdeea1d8	-0.11651963
224	0xbe659e57	-0.22423683
225	0xbe0892a4	-0.13337189
226	0xbdd7e67d	-0.10542009
227	0xbd7c5b04	-0.061610237
228	0xbe020c88	-0.12700093
229	0xbe687361	-0.22700264
230	0x3dbb5353	0.09146752
231	0xbd7c2796	-0.06156119
232	0xbd3a05a1	-0.045415524
233	0xbe4cbf3e	-0.19994828
234	0xbde1bc51	-0.11022247
235	0xbe54f466	-0.20796356
236	0xbd39ce0b	-0.045362514
237	0xbe23a69d	-0.15981527
238	0xbe4b8218	-0.19873846
239	0xbe129682	-0.14315227
240	0xbce3e012	-0.027816806
241	0xbe1e92e0	-0.15485716
242	0xbde4931a	-0.1116087
243	0xbc56e275	-0.013115515
244	0xbe2cb082	-0.16864207
245	0xbd564435	-0.05231114
246	0xbcde5f41	-0.02714503
247	0x3c68349b	0.014172698
248	0xbe09e487	-0.13466083
249	0xbe18f30a	-0.14936462
250	0xbe9e552e	-0.30924362
251	0xbe310c42	-0.17289832
252	0xbd7e48a8	-0.06208101
253	0xbe21b6d6	-0.15792403
254	0xbcf98b4c	-0.03046193
255	0xbe48b750	-0.19601178

network.2.weight f4 [256]
0	0x3f6d468a	0.9268576
1	0x3f58c7f7	0.8468012
2	0x3f7216f4	0.94566274
3	0x3f7dcfd3	0.9914524
4	0x3f6fa4f0	0.9361105
5	0x3f7d39af	0.98916143
6	0x3f7b4852	0.9815723
7	0x3f7048a6	0.9386085
8	0x3f604e68	0.8761964
9	0x3f680fe9	0.90649277
10	0x3f83a525	1.0284773
11	0x3f6a74f0	0.9158468
12	0x3f7ec52a	0.995196
13	0x3f80d9d1	1.0066472
14	0x3f78463c	0.9698217
15	0x3f736868	0.95081186
16	0x3f579d5e	0.842245
17	0x3f7a0128	0.97658014
18	0x3f721c23	0.94574183
19	0x3f655454	0.895818
20	0x3f7459b3	0.9544937
21	0x3f8037f3	1.0017074
22	0x3f85c36f	1.0450267
23	0x3f7090e8	0.9397111
24	0x3f79218f	0.9731683
25	0x3f76fcd7	0.96479553
26	0x3f7eb25a	0.9949089
27	0x3f7c560f	0.98568815
28	0x3f8091b7	1.0044469
29	0x3f68b24a	0.9089705
30	0x3f696dd9	0.9118324
31	0x3f80c8ee	1.0061319
32	0x3f7be2ba	0.9839283
33	0x3f71003e	0.94140995
34	0x3f84e162	1.0381281
35	0x3f6de87b	0.9293286
36	0x3f798f30	0.9748411
37	0x3f75549d	0.95832235
38	0x3f8578de	1.0427511
39	0x3f738ac4	0.95133615
40	0x3f7dbeac	0.9911907
41	0x3f6d05b7	0.92586845
42	0x3f7a5f75	0.97801906
43	0x3f7759b9	0.9662128
44	0x3f80bc48	1.0057459
45	0x3f6c90ff	0.92408746
46	0x3f49debe	0.788555
47	0x3f65c1fa	0.8974911
48	0x3f732a83	0.9498674
49	0x3f7a1b5a	0.97697985
50	0x3f6fd5ed	0.936858
51	0x3f851175	1.0395952
52	0x3f7e8355	0.99419147
53	0x3f7fb769	0.99889237
54	0x3f796775	0.9742349
55	0x3f73daba	0.95255625
56	0x3f837c80	1.0272369
57	0x3f67830e	0.9043435
58	0x3f7524e4	0.95759416
59	0x3f71695f	0.9430141
60	0x3f7939e8	0.9735398
61	0x3f62d27f	0.8860244
62	0x3f72e98a	0.948876
63	0x3f79ab5b	0.9752709
64	0x3f6aee5a	0.91769946
65	0x3f6a3d15	0.91499454
66	0x3f7f6bb8	0.9977374
67	0x3f7e651d	0.99373037
68	0x3f803d26	1.0018661
69	0x3f71b7c2	0.9442102
70	0x3f722510	0.945878
71	0x3f85a505	1.0440985
72	0x3f57f12a	0.8435236
73	0x3f8062ea	1.0030186
74	0x3f7e8187	0.99416393
75	0x3f610d9d	0.879114
76	0x3f713cda	0.9423348
77	0x3f801e13	1.0009178
78	0x3f753cbf	0.95795816
79	0x3f790961	0.97279936
80	0x3f7da1c9	0.9907499
81	0x3f782d9d	0.969446
82	0x3f7dc08a	0.99121916
83	0x3f8041e4	1.0020108
84	0x3f828350	1.0196323
85	0x3f721994	0.9457028
86	0x3f70d0a5	0.94068366
87	0x3f7afc9d	0.9804171
88	0x3f6f85fb	0.9356381
89	0x3f65d407	0.89776653
90	0x3f79c364	0.9756377
91	0x3f6cccc1	0.9249993
92	0x3f79480f	0.9737558
93	0x3f706654	0.9390614
94	0x3f793c54	0.9735768
95	0x3f6ff5c2	0.9373437
96	0x3f73133c	0.94951224
97	0x3f6e48b1	0.9307967
98	0x3f87cdaa	1.0609639
99	0x3f812ff3	1.0092758
100	0x3f5b7cc1	0.85737234
101	0x3f7e41be	0.99319065
102	0x3f80f185	1.0073706
103	0x3f758cd9	0.9591804
104	0x3f6c0629	0.921969
105	0x3f70b882	0.94031537
106	0x3f80d870	1.0066051
107	0x3f803bab	1.0018209
108	0x3f5a064c	0.8516586
109	0x3f6488bf	0.8927116
110	0x3f601282	0.8752824
111	0x3f65ca74	0.89762044
112	0x3f754d40	0.95821
113	0x3f80cc4b	1.0062345
114	0x3f780c5b	0.9689385
115	0x3f69a47e	0.9126662
116	0x3f743fd0	0.9540987
117	0x3f7297e0	0.9476299
118	0x3f707ee9	0.9394365
119	0x3f88c913	1.0686363
120	0x3f6d2978	0.926414
121	0x3f6a3166	0.91481626
122	0x3f845d1c	1.0340915
123	0x3f772338	0.96538115
124	0x3f7a9ec7	0.97898525
125	0x3f835ea2	1.0263255
126	0x3f68d5d5	0.9095128
127	0x3f847d80	1.03508
128	0x3f81fcf2	1.0155318
129	0x3f6b1223	0.9182455
130	0x3f6826ee	0.906844
131	0x3f710a6c	0.9415653
132	0x3f879f97	1.0595578
133	0x3f7872d7	0.9705023
134	0x3f7fd15d	0.9992884
135	0x3f777085	0.96656066
136	0x3f79c48c	0.9756553
137	0x3f614be5	0.8800643
138	0x3f864824	1.0490766
139	0x3f745b63	0.95451945
140	0x3f6948c1	0.9112664
141	0x3f79a300	0.97514343
142	0x3f8190aa	1.0122273
143	0x3f881ae1	1.0633203
144	0x3f79a5aa	0.9751841
145	0x3f828967	1.0198182
146	0x3f800f60	1.0004692
147	0x3f769ef9	0.96336323
148	0x3f788120	0.9707203
149	0x3f635c10	0.8881235
150	0x3f644e5c	0.89182067
151	0x3f6418ba	0.8910023
152	0x3f703ee9	0.93845993
153	0x3f7a5467	0.9778504
154	0x3f80fe63	1.0077633
155	0x3f6f5180	0.93483734
156	0x3f80d895	1.0066096
157	0x3f6df750	0.92955494
158	0x3f6d66c4	0.9273493
159	0x3f7c8181	0.9863511
160	0x3f823307	1.0171822
161	0x3f776ffa	0.9665524
162	0x3f6bf5b6	0.921718
163	0x3f7518b6	0.9574083
164	0x3f84556b	1.0338567
165	0x3f801bc3	1.0008472
166	0x3f6d667f	0.9273452
167	0x3f7f5a97	0.99747604
168	0x3f8a0771	1.0783521
169	0x3f69ecf4	0.91377187
170	0x3f7777e4	0.96667314
171	0x3f69a45f	0.91266435
172	0x3f55d433	0.83526915
173	0x3f734c85	0.95038635
174	0x3f879d79	1.0594932
175	0x3f7fb73a	0.99888957
176	0x3f7f2d0e	0.99678123
177	0x3f7179ed	0.9432667
178	0x3f67caa8	0.90543604
179	0x3f6e83fd	0.9317015
180	0x3f5f4539	0.87215
181	0x3f87ff8f	1.0624865
182	0x3f75d394	0.9602597
183	0x3f880ff7	1.0629872
184	0x3f7c6414	0.9859021
185	0x3f839a6a	1.0281498
186	0x3f4bfd0a	0.7968298
187	0x3f78012f	0.96876806
188	0x3f5583c8	0.8340421
189	0x3f6e7ee9	0.931624
190	0x3f634515	0.88777286
191	0x3f70d845	0.9408
192	0x3f72d669	0.94858414
193	0x3f851d09	1.0399486
194	0x3f6dc027	0.92871326
195	0x3f82d887	1.0222329
196	0x3f797adc	0.97453094
197	0x3f6873cb	0.90801686
198	0x3f8098c5	1.0046622
199	0x3f7b6cdb	0.98212975
200	0x3f72c04a	0.9482466
201	0x3f6c1574	0.92220235
202	0x3f8ca138	1.09867
203	0x3f771ee6	0.9653152
204	0x3f83f7df	1.0310019
205	0x3f74bac6	0.95597494
206	0x3f587d6c	0.8456638
207	0x3f7b85d7	0.982511
208	0x3f752424	0.9575827
209	0x3f795d01	0.9740754
210	0x3f5e96ec	0.8694904
211	0x3f828efe	1.0199888
212	0x3f5b9bfd	0.85784894
213	0x3f6c150a	0.92219603
214	0x3f705099	0.9387298
215	0x3f79af9c	0.97533584
216	0x3f706a33	0.9391205
217	0x3f825b10	1.018404
218	0x3f808970	1.0041943
219	0x3f73ca08	0.9523015
220	0x3f746952	0.95473206
221	0x3f75d54d	0.96028596
222	0x3f749517	0.95539993
223	0x3f654b41	0.89567953
224	0x3f7530ef	0.9577779
225	0x3f61c171	0.88185793
226	0x3f78170e	0.9691018
227	0x3f85dd5f	1.0458182
228	0x3f8039e3	1.0017666
229	0x3f7af0b6	0.98023546
230	0x3f6ad70e	0.917344
231	0x3f6eec5d	0.9332941
232	0x3f6510ae	0.89478576
233	0x3f8d2c74	1.1029191
234	0x3f8426f9	1.0324394
235	0x3f7d8fe7	0.990477
236	0x3f6397aa	0.88903296
237	0x3f68685c	0.9078424
238	0x3f83eb27	1.0306138
239	0x3f85314e	1.0405672
240	0x3f73e55c	0.9527185
241	0x3f825957	1.0183514
242	0x3f744d96	0.95430887
243	0x3f4cde6d	0.80026895
244	0x3f5827c6	0.8443569
245	0x3f7e8be3	0.994322
246	0x3f664d91	0.89962107
247	0x3f6b9667	0.9202637
248	0x3f814897	1.0100278
249	0x3f7a2bdc	0.97723174
250	0x3f6e0f9b	0.9299256
251	0x3f73b390	0.95195866
252	0x3f70985d	0.9398249
253	0x3f7af21c	0.9802568
254	0x3f834466	1.0255249
255	0x3f7bb9ed	0.98330575

network.2.bias f4 [256]
0	0x3db96ca0	0.09053922
1	0x3d367087	0.04454091
2	0xbc680160	-0.014160484
3	0x3e03efe7	0.12884484
4	0x3e6df0b1	0.23236348
5	0x3a3c977d	0.00071942044
6	0x3e20b21e	0.15692946
7	0x3dda357d	0.10654733
8	0x3d1dd38d	0.03853183
9	0xbdbc5667	-0.091961674
10	0x3e24ff9f	0.16113137
11	0x3dfb7225	0.12277631
12	0x3cd85fd6	0.026412886
13	0x3d26c215	0.040712435
14	0x3cd0e75c	0.025500946
15	0x3dc38154	0.09546152
16	0xbe10f6fb	-0.14156716
17	0xbd29a440	-0.041416407
18	0x3d09033f	0.03345036
19	0xbd8520e3	-0.06500413
20	0x3dc785e1	0.09742332
21	0xbd90187b	-0.07035919
22	0x3db8702e	0.090057716
23	0x3d09f155	0.033677418
24	0x3c245a60	0.010031313
25	0x3d7580de	0.05993735
26	0x3d9b1380	0.07572079
27	0x3c9398d0	0.018017203
28	0x3e712e0f	0.23552726
29	0xbd736ef0	-0.05943197
30	0xbc943a65	-0.018094251
31	0x3d394195	0.04522856
32	0x3e09330c	0.13398379
33	0xbbe18783	-0.0068826093
34	0xbcb0777e	-0.021541353
35	0x3e689915	0.22714646
36	0xbcbb40ac	-0.022857986
37	0x3c455763	0.01204476
38	0xbbf43094	-0.00745208
39	0xbcf38832	-0.029728029
40	0x3df2fe18	0.11864871
41	0x3d3bf740	0.045890093
42	0x3c909b0f	0.017652063
43	0x3b91aad0	0.0044454113
44	0xbc318a63	-0.010836217
45	0x3bb45435	0.0055032023
46	0xbd322f2e	-0.043502025
47	0xbd4fd58b	-0.05074076
48	0xbd48f271	-0.049059335
49	0xbc7db93a	-0.015486056
50	0xbc35df27	-0.011100567
51	0xbc8ca641	-0.01716912
52	0x3c8d23d9	0.017229008
53	0x3d818308	0.0632382
54	0x3d6267ab	0.055274647
55	0x3e08c9b1	0.13358189
56	0x3dad4771	0.08460892
57	0xbb230ec8	-0.0024880636
58	0xbd039d8d	-0.032132674
59	0x3dcb0eed	0.09914956
60	0x3dd8eb60	0.10591769
61	0x3df6a2a2	0.120427385
62	0x3c9bb238	0.01900588
63	0x3dc66953	0.09688058
64	0xbbcc4bba	-0.0062346132
65	0x3d4fe0b7	0.050751414
66	0x3db64c06	0.08901219
67	0x3c908b49	0.017644541
68	0x3cd66819	0.026172685
69	0xbd10143a	-0.03517554
70	0x3cfb149c	0.030649476
71	0x3e4c54e2	0.19954255
72	0xbde1e969	-0.110308476
73	0x3ad28df8	0.0016064039
74	0x3e1d4400	0.15357971
75	0x3d377af1	0.04479498
76	0x3e355fb0	0.17712283
77	0x3e0efec7	0.13964377
78	0x3d336070	0.04379314
79	0x3db3a4ca	0.087716654
80	0x3e12f259	0.14350261
81	0x3d3d8fc4	0.046279684
82	0x3d8681b0	0.06567705
83	0x3d955ccf	0.072930925
84	0x3d6876e7	0.05675402
85	0x3c9eb30a	0.019372482
86	0x3d5788d2	0.052620716
87	0xbca164bc	-0.019701354
88	0x3c8e0525	0.017336437
89	0x3dc1d19e	0.094638094
90	0x3e04f284	0.12983137
91	0x3dc598a6	0.09648256
92	0x3d3157d3	0.043296646
93	0x3d836984	0.0641661
94	0x3d22536f	0.03963035
95	0x3d8ef615	0.0698053
96	0xbd849d81	-0.06475354
97	0x3de7f8f2	0.113267794
98	0x3ddf75b4	0.10911122
99	0xbce219ce	-0.027600195
100	0x3bb77a9d	0.0055993334
101	0x3dfab83b	0.122421704
102	0x3d9afaee	0.07567392
103	0x3dea2954	0.11433664
104	0xbd016f45	-0.031600256
105	0xbcd9d81d	-0.026592309
106	0x3d13aa48	0.036051065
107	0x3d91629b	0.070988856
108	0x3cff7a53	0.031186258
109	0x3d090ddb	0.03346048
110	0x3d254530	0.040349185
111	0x3e000557	0.12502037
112	0x3df08f9a	0.1174614
113	0x3df08e9e	0.11745952
114	0x3d8aa461	0.06769634
115	0x3dd4c02e	0.10388218
116	0xbc2078df	-0.009794443
117	0x3db53763	0.08848455
118	0x3dbd45b8	0.092418134
119	0x3da86b57	0.082235985
120	0xbb31f637	-0.0027154812
121	0x3e0d2215	0.13782533
122	0x3c451683	0.012029293
123	0x3d81a7b9	0.06330819
124	0x3e1f2374	0.15540868
125	0x3e310971	0.17288758
126	0x3db3f78c	0.0878745
127	0x3da45291	0.08023561
128	0x3d453617	0.048147287
129	0x3dc58cf0	0.09646022
130	0xbbab926f	-0.005235962
131	0x3dafddc1	0.08587218
132	0xbd22814e	-0.039674096
133	0x3dbeefc3	0.09323075
134	0x3bf7df90	0.0075644925
135	0x3d84af2f	0.06478726
136	0x3da2b97d	0.07945535
137	0x3b76907d	0.0037622743
138	0x3d6b6efa	0.057478882
139	0x3cb4c920	0.02206856
140	0xbda41559	-0.08011884
141	0x3de8e7de	0.1137235
142	0x3def87fd	0.116958596
143	0x3d6d15a5	0.05788197
144	0x3e009bc7	0.12559424
145	0x3d9809ce	0.07423745
146	0x3e3f485f	0.18679951
147	0x3df7f5f7	0.12107461
148	0x3dda7899	0.106675334
149	0x3ccece02	0.025244717
150	0xbdda6125	-0.1066306
151	0xbcc7dbcb	-0.024396798
152	0x3d29002f	0.04125994
153	0x3d4c5b25	0.04989161
154	0xbe15743c	-0.14595121
155	0x3e715911	0.23569132
156	0x3e0579df	0.13034771
157	0x3da6f3ff	0.08152007
158	0x3d954b89	0.07289798
159	0x3e112b2d	0.14176627
160	0x3d9dc630	0.07703817
161	0x3e4982b0	0.1967876
162	0xbd6c5bfb	-0.057704907
163	0x3d9bdd10	0.07610524
164	0x3d56fb8d	0.05248599
165	0x3c5095d2	0.012731032
166	0x3e24ca97	0.16092907
167	0x3c205cad	0.009787721
168	0x3dd5fa72	0.10448159
169	0xbcf382a8	-0.029725388
170	0x3c1a976d	0.009435517
171	0x3c82e863	0.015979951
172	0x3cac279e	0.021014985
173	0xbd4e88d2	-0.05042345
174	0x3e000c35	0.12504657
175	0x3d19cf78	0.037551373
176	0x3dc1a62a	0.094555214
177	0x3d06e833	0.032936286
178	0x3da751de	0.08169912
179	0x3d8f95d5	0.07011
180	0x3d189bbc	0.037257895
181	0x3cde9b61	0.0271737
182	0x3d86e0ce	0.06585847
183	0x3db22c3a	0.08699842
184	0xbc434eae	-0.011920614
185	0x3d180476	0.03711363
186	0xbdef8bac	-0.11696562
187	0xbbf5eed2	-0.0075052762
188	0x3ce1c261	0.027558507
189	0x3d6c0f77	0.057631936
190	0x3c6d212a	0.014473239
191	0x3e07559d	0.13216253
192	0xbbd1d9c9	-0.006404136
193	0x3e0a7247	0.13520156
194	0xba4efe18	-0.0007896139
195	0x3e031f2c	0.1280486
196	0x3d098bd2	0.03358061
197	0xbb8258b3	-0.003977859
198	0x3e202b38	0.15641487
199	0x3d73c995	0.059518415
200	0x3da70356	0.08154933
201	0x3e242dba	0.16033068
202	0x3a71f30f	0.0009229639
203	0x3d22a5e7	0.039708998
204	0xbc612b9d	-0.013743308
205	0x3e07e7e5	0.13272054
206	0xbbea657d	-0.0071532116
207	0x3d30e335	0.04318543
208	0x3d34fa11	0.044183794
209	0x3dd0ac60	0.10189128
210	0xbdf5771a	-0.119856074
211	0x3e56ff1c	0.20995754
212	0xbda5c7e6	-0.08094768
213	0x3e1322d9	0.14368762
214	0x3ca4ccb8	0.020117149
215	0xbc267949	-0.010160753
216	0x3dd229ef	0.102619044
217	0x3e0003c3	0.12501435
218	0x3dc122f8	0.09430498
219	0x3dc22536	0.09479754
220	0x3dd94293	0.10608401
221	0x3d021b22	0.031764157
222	0x3d39413b	0.045228224
223	0x3dada1dc	0.08478138
224	0x3df335a3	0.11875465
225	0x3d08b03b	0.03337119
226	0x3e4fa572	0.20277956
227	0x3dd636ee	0.10459696
228	0x3d294948	0.041329652
229	0xbc87e358	-0.016587898
230	0x3bd059c3	0.0063583567
231	0x3da1b652	0.07896103
232	0x3b3571bf	0.0027686206
233	0x3e9b3f2b	0.3032163
234	0x3e0f6b2b	0.14005725
235	0x3d919ed5	0.07110373
236	0x3db09dd3	0.086238526
237	0xbce63a6d	-0.028104031
238	0x3de0152a	0.10941537
239	0x3cd2a5ac	0.025713764
240	0x3cb003a7	0.021486117
241	0x3e5000f1	0.20312859
242	0x3c60509b	0.013691093
243	0xbb8b6993	-0.004254529
244	0x3c9efce6	0.0194077
245	0xbd381118	-0.044938177
246	0x3c570db4	0.013125826
247	0x3d5b37c2	0.05351997
248	0x3c818615	0.015811006
249	0x3d3e4359	0.046450946
250	0x3d6deb35	0.05808564
251	0x3dc5dd2f	0.09661328
252	0xb99cbb68	-0.00029894267
253	0x3db589e8	0.08864194
254	0x3dc99acd	0.09843979
255	0xbd35ee9d	-0.044417012

network.2.running_mean f4 [256]
0	0x3e153568	0.14571154
1	0x3e61f1f8	0.2206496
2	0x3da8722c	0.082249016
3	0x3dc5f4da	0.09665842
4	0x3e3aa563	0.18227153
5	0x3e619d64	0.22032696
6	0x3dcc7363	0.09982946
7	0x3db44dae	0.08803879
8	0x3e249cc6	0.1607543
9	0x3e309f3f	0.17248248
10	0x3dffc0e7	0.12487965
11	0x3da760f4	0.08172789
12	0x3e142c78	0.14470088
13	0x3d9cd073	0.07656946
14	0x3e2cfab2	0.16892508
15	0x3d8581b1	0.06518877
16	0x3e376ff8	0.17913806
17	0x3e6a6933	0.22891693
18	0x3e326c08	0.17424023
19	0x3d94a32a	0.072576836
20	0x3d4b3e21	0.049619798
21	0x3d8e67f7	0.069534235
22	0x3e02f411	0.12788416
23	0x3e3418df	0.17587613
24	0x3e145529	0.14485611
25	0x3e071547	0.1319171
26	0x3e1246bc	0.14284796
27	0x3e094ed6	0.1340898
28	0x3dda1b2d	0.106497146
29	0x3e124c40	0.142869
30	0x3e19a3a7	0.15003835
31	0x3dc4dc23	0.096123
32	0x3e7a56e5	0.2444721
33	0x3e13cb51	0.14433028
34	0x3e2293f0	0.15876746
35	0x3e9ff548	0.31241822
36	0x3dab628d	0.083684064
37	0x3d0ba56e	0.034093313
38	0x3e10cc45	0.14140423
39	0x3d80d35c	0.062903136
40	0x3de43752	0.11143364
41	0x3e9205eb	0.2852014
42	0x3d99d377	0.07511037
43	0x3dfec996	0.12440793
44	0x3e2dcd02	0.16972736
45	0x3e6727c2	0.2257376
46	0x3eddc367	0.43313143
47	0x3e043ff8	0.12915027
48	0x3e0ac538	0.13551795
49	0x3d097e66	0.03356781
50	0x3e613d98	0.21996152
51	0x3d0294ef	0.031880315
52	0x3d9ce623	0.076610826
53	0x3d5a46ba	0.053290106
54	0x3df71df4	0.1206626
55	0x3e3b3a77	0.18284021
56	0x3d67461f	0.056463357
57	0x3e46bc54	0.19407779
58	0x3deaaac4	0.11458352
59	0x3e0779d7	0.13230072
60	0x3e10b16c	0.14130181
61	0x3e2575d4	0.16158229
62	0x3e9199d4	0.28437674
63	0x3d9ef0f8	0.07760805
64	0x3e45c77d	0.1931438
65	0x3db27dd2	0.087154046
66	0x3e18face	0.14939424
67	0x3e264d3c	0.162404
68	0x3e46c501	0.19411089
69	0x3e23c2d6	0.15992293
70	0x3da52418	0.08063525
71	0x3de190e2	0.11013962
72	0x3e1f89f4	0.15579969
73	0x3dc64082	0.09680273
74	0x3dd471d1	0.10373271
75	0x3e5fa60e	0.21840689
76	0x3e3e73a7	0.18598805
77	0x3e171ce0	0.14757109
78	0x3dda3c72	0.1065606
79	0x3e31e59e	0.17372748
80	0x3e072933	0.1319931
81	0x3dc003da	0.093757346
82	0x3df4dfce	0.1195675
83	0x3e33c488	0.1755544
84	0x3e6127f7	0.21987902
85	0x3e449882	0.19198802
86	0x3e2958dc	0.16537803
87	0x3e5b0c2f	0.21391366
88	0x3dc0c856	0.09413211
89	0x3e5fc982	0.21854213
90	0x3e2ea05f	0.17053364
91	0x3ea84998	0.32868648
92	0x3dc68633	0.09693565
93	0x3e2716cf	0.16317295
94	0x3dc98bb8	0.09841102
95	0x3e1cd939	0.15317239
96	0x3e1c54b1	0.15266682
97	0x3e77c4fe	0.2419624
98	0x3dc7719f	0.097384684
99	0x3e1f4ca4	0.1555658
100	0x3e3dd19d	0.18536992
101	0x3e073233	0.13202743
102	0x3e1caee8	0.15301096
103	0x3e43a354	0.19105273
104	0x3de14edd	0.1100137
105	0x3dd69699	0.10477943
106	0x3df0db42	0.1176057
107	0x3d8b4512	0.068002835
108	0x3e1e03c0	0.15431118
109	0x3e143e98	0.14477003
110	0x3e2d51d0	0.1692574
111	0x3e2590d4	0.16168529
112	0x3e12cb24	0.14335304
113	0x3e3d9970	0.18515563
114	0x3da67683	0.08128073
115	0x3dd1ce18	0.102443874
116	0x3dea68e0	0.114457846
117	0x3e26e9c5	0.16300113
118	0x3e3eea10	0.18643975
119	0x3d7b269b	0.061316114
120	0x3d9d96b0	0.07694757
121	0x3e0e7a65	0.13913877
122	0x3d045a46	0.032312654
123	0x3e3e1b61	0.18565132
124	0x3e397f03	0.18114857
125	0x3dd61ad6	0.10454337
126	0x3de334b4	0.11094037
127	0x3db7296d	0.08943448
128	0x3d9b5f8d	0.07586584
129	0x3e44dd78	0.19225109
130	0x3dbae81f	0.09126305
131	0x3e37da90	0.17954469
132	0x3da5ed0f	0.08101856
133	0x3dbd16ca	0.09232862
134	0x3e090881	0.1338215
135	0x3e2c2b51	0.16813399
136	0x3dcf24b5	0.10114423
137	0x3e9f9385	0.31167236
138	0x3dce6af7	0.10078996
139	0x3ddd8377	0.108160906
140	0x3e9babda	0.3040455
141	0x3e57b624	0.21065575
142	0x3e1f09b9	0.15531053
143	0x3da58896	0.08082692
144	0x3de96acf	0.11397325
145	0x3d7a3576	0.06108614
146	0x3e4698e0	0.19394255
147	0x3e1769ad	0.14786406
148	0x3df9ab98	0.12190932
149	0x3e810b80	0.25204086
150	0x3def1a55	0.11674944
151	0x3e82ed93	0.2557188
152	0x3e673204	0.22577673
153	0x3d8ca76f	0.06867873
154	0x3d53849e	0.051640145
155	0x3e62b12c	0.22137898
156	0x3e32ce03	0.174614
157	0x3d81b152	0.06332649
158	0x3e0ae7ee	0.13565037
159	0x3d9df2e8	0.07712346
160	0x3deecdd9	0.11660356
161	0x3e18f91f	0.14938782
162	0x3e29dd92	0.16588429
163	0x3db83218	0.089939296
164	0x3ddf9f57	0.109190635
165	0x3daa2281	0.08307362
166	0x3e482314	0.19544631
167	0x3def1754	0.11674371
168	0x3da313a7	0.07962733
169	0x3e08dbf0	0.1336515
170	0x3d7b50a2	0.061356194
171	0x3e0897fa	0.13339224
172	0x3e27f79c	0.16403049
173	0x3e29a11f	0.16565369
174	0x3dbe248e	0.09284316
175	0x3daa4168	0.083132565
176	0x3e40b0c7	0.18817435
177	0x3dfcaa32	0.1233715
178	0x3ea0e9a5	0.31428257
179	0x3e68ab9c	0.22721714
180	0x3ea80d2a	0.32822543
181	0x3d61db46	0.055140756
182	0x3e1c0a92	0.15238407
183	0x3df15e6c	0.11785588
184	0x3d9fe1f9	0.07806773
185	0x3dc66cac	0.09688696
186	0x3e12d189	0.14337744
187	0x3e19adab	0.15007655
188	0x3e3c1877	0.18368708
189	0x3e50d44a	0.20393482
190	0x3de518b4	0.11186352
191	0x3e423b42	0.18967918
192	0x3da7b1c8	0.08188206
193	0x3e0a2496	0.13490519
194	0x3dfdc805	0.12391666
195	0x3daaa080	0.08331394
196	0x3e63dd80	0.22252464
197	0x3e3ffb0e	0.18748114
198	0x3e4ef1f4	0.20209485
199	0x3de97a81	0.11400319
200	0x3e02768e	0.12740538
201	0x3e60f253	0.2196744
202	0x3c5adf77	0.013358942
203	0x3dd703d5	0.10498778
204	0x3d31b54b	0.043385785
205	0x3e168417	0.14698826
206	0x3e2dccdd	0.1697268
207	0x3df685d7	0.12037247
208	0x3e38724a	0.18012348
209	0x3deff5cc	0.11716804
210	0x3e89c821	0.269105
211	0x3e20bebf	0.15697764
212	0x3dc56d97	0.09640043
213	0x3e48e4d4	0.19618541
214	0x3e43a2e0	0.191051
215	0x3d76f547	0.06029251
216	0x3e580893	0.21097021
217	0x3d8af566	0.06785087
218	0x3e0d62d0	0.13807225
219	0x3d9c3f1d	0.076292254
220	0x3e4fca76	0.20292076
221	0x3dc040f2	0.09387387
222	0x3d83d480	0.064370155
223	0x3e3bf8a4	0.18356568
224	0x3d2f563a	0.04280684
225	0x3e15d6cc	0.1463272
226	0x3e362ef8	0.17791355
227	0x3e030316	0.12794146
228	0x3df814a0	0.12113309
229	0x3e14f2a6	0.14545688
230	0x3e816c3d	0.25277892
231	0x3de229ce	0.1104313
232	0x3e66a78a	0.22524849
233	0x3dd4ecd7	0.10396736
234	0x3e0d21fb	0.13782494
235	0x3df80aa8	0.121114075
236	0x3e119d78	0.14220226
237	0x3df54e7a	0.11977859
238	0x3e177865	0.1479202
239	0x3d010aae	0.031504326
240	0x3e5e169e	0.21688315
241	0x3e0b6c15	0.13615449
242	0x3e23cf4f	0.1599705
243	0x3e3afe4f	0.18261074
244	0x3e17d34a	0.14826694
245	0x3e0db258	0.13837564
246	0x3decfb22	0.11571337
247	0x3e557a98	0.20847547
248	0x3d6b36ff	0.057425495
249	0x3e127fac	0.14306515
250	0x3daeaee9	0.08529455
251	0x3de8e959	0.113726325
252	0x3dd21d26	0.10259466
253	0x3e1b65be	0.1517553
254	0x3e425389	0.18977179
255	0x3da2d1c4	0.07950166

network.2.running_var f4 [256]
0	0x3d8b2fe6	0.06796245
1	0x3e1bfdce	0.15233538
2	0x3cdf1197	0.027230067
3	0x3cb65225	0.022255966
4	0x3daf7818	0.08567828
5	0x3d995152	0.07486214
6	0x3d08692f	0.033303436
7	0x3cd915a2	0.026499573
8	0x3de4ec16	0.11177842
9	0x3d863f8a	0.06555088
10	0x3cf84609	0.030306833
11	0x3cc64a2f	0.024205295
12	0x3d5eafa3	0.05436672
13	0x3c8febab	0.01756843
14	0x3ddfb0b0	0.10922372
15	0x3cc88b8a	0.0244806
16	0x3d9bbb9c	0.07604143
17	0x3d8cf1c6	0.06882052
18	0x3daafac0	0.08348608
19	0x3cf4ea33	0.029896831
20	0x3c6c5f17	0.014426968
21	0x3cc260e4	0.023727842
22	0x3d44bcf1	0.04803175
23	0x3d51dd3c	0.051236376
24	0x3d178d35	0.0369999
25	0x3d56b424	0.05241789
26	0x3d4d8186	0.05017235
27	0x3d31fafd	0.04345225
28	0x3cfc39ce	0.030789282
29	0x3d911959	0.07084913
30	0x3da631e4	0.08114985
31	0x3d1178a9	0.03551546
32	0x3de3fcd6	0.11132209
33	0x3d3f68a1	0.04673064
34	0x3d25b950	0.04045993
35	0x3e078b4e	0.13236734
36	0x3ca73d76	0.020415049
37	0x3c43f3e3	0.011960003
38	0x3d815d70	0.0631665
39	0x3cc44a70	0.023961276
40	0x3d6a65e9	0.057226095
41	0x3e00d61c	0.12581676
42	0x3ca4593e	0.020062085
43	0x3d646db6	0.05576869
44	0x3d536252	0.051607437
45	0x3df4a215	0.11944977
46	0x3e847758	0.25872302
47	0x3d1bcf24	0.03803934
48	0x3d2f2632	0.042761035
49	0x3c322646	0.010873383
50	0x3dd9da3a	0.106373265
51	0x3bfd9672	0.0077388817
52	0x3cc9ef54	0.024650253
53	0x3c582b73	0.013193953
54	0x3d8205c8	0.06348759
55	0x3d5544b3	0.05206747
56	0x3c6b9515	0.014378806
57	0x3d9357c8	0.07194477
58	0x3d3a41c9	0.045472894
59	0x3d8a7512	0.06760611
60	0x3d36166e	0.044454984
61	0x3db5f85d	0.08885262
62	0x3dbc7218	0.09201449
63	0x3c9943b0	0.018709034
64	0x3daba049	0.08380181
65	0x3d52998d	0.05141597
66	0x3dd4f52b	0.103983246
67	0x3d468c91	0.0484739
68	0x3da61288	0.08109003
69	0x3d919406	0.07108311
70	0x3cb21253	0.021737253
71	0x3cfbf081	0.03075433
72	0x3d87293d	0.065996625
73	0x3cea0cd2	0.028570566
74	0x3d2d6b71	0.042338792
75	0x3dc6f465	0.09714583
76	0x3d311cc2	0.043240316
77	0x3d74165f	0.059591647
78	0x3d2f5236	0.04280301
79	0x3d8fc36f	0.07019698
80	0x3d492e39	0.049116347
81	0x3cc6a0ed	0.024246657
82	0x3d6d68c3	0.057961237
83	0x3d8f8fdc	0.07009861
84	0x3db0c710	0.08631718
85	0x3d9b0bb8	0.075705945
86	0x3d825474	0.063637644
87	0x3d9c738c	0.07639226
88	0x3d39b120	0.045334935
89	0x3de41c40	0.11138201
90	0x3db3dc9e	0.08782314
91	0x3e3c849d	0.18409963
92	0x3ccbd914	0.024883784
93	0x3d869fff	0.065734856
94	0x3cb9be2b	0.022673687
95	0x3d834863	0.06410291
96	0x3d537987	0.05162957
97	0x3dff14f4	0.12455168
98	0x3cecb3f8	0.02889441
99	0x3d69c164	0.057069197
100	0x3daba2e0	0.08380675
101	0x3d6abd5f	0.057309505
102	0x3d4c7b11	0.049922053
103	0x3d6dbc7f	0.058041092
104	0x3d6af9dc	0.05736719
105	0x3cf0a6ca	0.029376406
106	0x3d1fee41	0.039045576
107	0x3caebaaf	0.021329252
108	0x3d98e077	0.07464688
109	0x3da6cfca	0.08145101
110	0x3dbd05f2	0.092296496
111	0x3da9d790	0.082930684
112	0x3dc41dd9	0.095760055
113	0x3d1e50c6	0.03865125
114	0x3cbb4688	0.02286078
115	0x3d170b18	0.036875814
116	0x3d5cd444	0.05391337
117	0x3d81465f	0.0631225
118	0x3db4a98f	0.08821403
119	0x3c5aca43	0.013353887
120	0x3ca6c0af	0.02035555
121	0x3d641a4d	0.055689145
122	0x3c126c1f	0.008936911
123	0x3d849c55	0.064751305
124	0x3dccffdc	0.10009739
125	0x3cc76aa5	0.024342844
126	0x3d25b268	0.040453345
127	0x3cd90060	0.026489437
128	0x3cddebaf	0.027089922
129	0x3d7b7424	0.061390057
130	0x3d4b40ad	0.049622227
131	0x3da65da8	0.08123332
132	0x3cc18220	0.023621619
133	0x3d00d9ae	0.031457596
134	0x3d5fb7cb	0.054618638
135	0x3d455259	0.048174236
136	0x3cde7ce1	0.027159156
137	0x3e596f65	0.212339
138	0x3cb4bcfb	0.02206277
139	0x3d47baae	0.048762016
140	0x3e35d57f	0.17757224
141	0x3da7dd97	0.08196562
142	0x3d574313	0.0525542
143	0x3cb1a370	0.021684378
144	0x3d4ca942	0.049966104
145	0x3c8d6299	0.01725893
146	0x3dbcfe71	0.09228218
147	0x3cc9b220	0.02462107
148	0x3d37556d	0.044759203
149	0x3dd0bd31	0.101923354
150	0x3d478858	0.048714012
151	0x3dee6bc5	0.11641649
152	0x3dc37eef	0.09545695
153	0x3cc30502	0.023806099
154	0x3c33bd28	0.010970391
155	0x3dff39d0	0.12462199
156	0x3d8e141f	0.069374315
157	0x3c9b18f7	0.018932803
158	0x3d7f91f7	0.062395062
159	0x3cd5e42e	0.026109781
160	0x3d35d6cd	0.044394303
161	0x3d7c828c	0.061647937
162	0x3d4f541c	0.050617322
163	0x3d06605c	0.03280674
164	0x3d221be8	0.039577395
165	0x3cb040cb	0.02151527
166	0x3dbc14af	0.091836326
167	0x3d3bc7c8	0.045844823
168	0x3cc4d9b4	0.02402959
169	0x3d6fa7f9	0.0585098
170	0x3c8903b6	0.016725402
171	0x3d3456c2	0.04402805
172	0x3d5aec10	0.053447783
173	0x3d9fbde2	0.07799889
174	0x3d278d2a	0.04090611
175	0x3d05ecf5	0.032696683
176	0x3d5d133f	0.053973433
177	0x3d81b907	0.06334119
178	0x3dc907cb	0.098159395
179	0x3da4931c	0.080358714
180	0x3e243861	0.16037132
181	0x3c854b04	0.016271122
182	0x3d7fc031	0.062439147
183	0x3d481e50	0.048857033
184	0x3cb9b281	0.022668125
185	0x3d09149a	0.033466913
186	0x3d6f59c2	0.05843521
187	0x3d3d9532	0.046284862
188	0x3db9a872	0.090653315
189	0x3d8f52ac	0.0699819
190	0x3d4bbd6b	0.04974119
191	0x3da8862c	0.08228716
192	0x3d0654fe	0.0327959
193	0x3d14fbae	0.036372833
194	0x3d638b01	0.055552486
195	0x3d1e842a	0.03870026
196	0x3db475bf	0.08811521
197	0x3da6b298	0.08139533
198	0x3dd32ebc	0.10311648
199	0x3d187648	0.037222177
200	0x3cf92b7d	0.030416245
201	0x3dabf6c0	0.08396673
202	0x3b4be196	0.0031109801
203	0x3d1d8dc5	0.03846528
204	0x3c1de410	0.009636894
205	0x3d8075ca	0.062724665
206	0x3d8a1656	0.067425415
207	0x3cc0c1c4	0.023529895
208	0x3d8f879e	0.07008289
209	0x3d1ad34d	0.03779917
210	0x3e3b9555	0.18318684
211	0x3d40175c	0.046897277
212	0x3d31cd3e	0.043408625
213	0x3e02bd7f	0.127676
214	0x3d9a073a	0.075209096
215	0x3caefbb8	0.021360263
216	0x3d981b4b	0.07427081
217	0x3c9471b7	0.01812063
218	0x3d1f5132	0.038895793
219	0x3cb3f6bf	0.021968244
220	0x3d9a6f0e	0.07540713
221	0x3ce2b2ba	0.027673114
222	0x3ca665e7	0.020312263
223	0x3dd72472	0.10504998
224	0x3c1d4198	0.009598158
225	0x3d7ec077	0.062195268
226	0x3d99ef35	0.07516328
227	0x3d0fb229	0.035082016
228	0x3d2772ad	0.040880848
229	0x3d94fd46	0.072748706
230	0x3dd356dc	0.103193015
231	0x3d3a66f6	0.045508347
232	0x3d9a9e52	0.075497285
233	0x3d11d274	0.035601094
234	0x3d53d430	0.05171603
235	0x3d1fb438	0.03899023
236	0x3d5b5119	0.053544138
237	0x3d5839aa	0.052789368
238	0x3d5f0f6c	0.054458067
239	0x3baa7542	0.0052019665
240	0x3d8953c3	0.067054294
241	0x3d66597b	0.05623768
242	0x3d5e3d5b	0.054257732
243	0x3d65d9c2	0.056115873
244	0x3d8f1b32	0.06987609
245	0x3d1c629e	0.038179986
246	0x3d07bb32	0.033137508
247	0x3da5fbbb	0.081046544
248	0x3c5261f0	0.012840733
249	0x3dd55b8e	0.10417853
250	0x3d13dc59	0.03609881
251	0x3d618c0e	0.055065207
252	0x3d12dba4	0.035853997
253	0x3d615ada	0.055018283
254	0x3d8698a5	0.065720834
255	0x3cd37f12	0.025817428

network.4.weight f4 [128, 256]
0	0xbe296229	-0.16541351
1	0x3c4cb97f	0.012495398
2	0xbc4127d8	-0.011789285
3	0xbcfed17c	-0.03110575
4	0x3d576330	0.052584827
5	0xbd2dbb9c	-0.042415246
6	0x3dfcd89b	0.12346002
7	0x3c1a8aaa	0.009432474
8	0xbd485437	-0.04890844
9	0x3ce73026	0.028221201
10	0xbce1dc64	-0.02757091
11	0x3c8c1a4c	0.017102383
12	0x3d67454f	0.056462582
13	0x3d7d3848	0.061821252
14	0x3ca7410a	0.020416755
15	0x3b6b1000	0.003586769
16	0x3d8c1549	0.06839997
17	0xbd158bea	-0.036510386
18	0xbba4a6a5	-0.0050247484
19	0xbdb72e46	-0.08944373
20	0x3d18bb29	0.037287865
21	0x3cb4b880	0.022060633
22	0x3d882d08	0.06649214
23	0x3de15846	0.11003165
24	0x3d2f3873	0.042778444
25	0x3cd52ff5	0.026023844
26	0x3d48f10f	0.049058016
27	0x3d830127	0.06396704
28	0xbe1e7c89	-0.15477194
29	0x3d413c84	0.047176853
30	0x3d667033	0.056259345
31	0xbd60e4e5	-0.05490579
32	0xba8a0077	-0.0010528703
33	0xbcc1ce93	-0.023658073
34	0x3d4c467e	0.049871914
35	0xbd102700	-0.035193443
36	0x3d3bf6d5	0.045889694
37	0xbd486e20	-0.04893315
38	0x3d026942	0.031838663
39	0x3deb0295	0.11475102
40	0xbd10d57d	-0.03535985
41	0x3d6dded9	0.058073852
42	0x3daae355	0.083441414
43	0x3cc3c258	0.023896381
44	0x3b38de5f	0.0028208715
45	0x3c8ce358	0.01719825
46	0xbd9447aa	-0.07240231
47	0x3d20e482	0.039280422
48	0xbd178817	-0.03699502
49	0x3d966c7e	0.07344912
50	0x3d674fe6	0.05647268
51	0x3b056420	0.0020353869
52	0x3d5f3757	0.054496136
53	0x3e087b22	0.13328221
54	0xbc2faa02	-0.010721685
55	0xbdbb3b05	-0.091421165
56	0x3d249822	0.040184148
57	0xbc121e8c	-0.008918416
58	0x3d370706	0.044684432
59	0xbd6150e8	-0.0550088
60	0xbd30bb4a	-0.043147363
61	0x3da7a596	0.0818588
62	0x3c8e55aa	0.017374832
63	0xbb06b201	-0.0020552876
64	0x3d3b65d0	0.045751393
65	0xbe38f366	-0.18061599
66	0x3b1d038f	0.002395842
67	0xbc244b74	-0.010027755
68	0xbd4c2843	-0.049843084
69	0xbd04870f	-0.032355364
70	0x3d99e320	0.07514024
71	0x3dac1156	0.08401744
72	0xbc440042	-0.011962952
73	0x3d58264d	0.0527709
74	0xbb8774b1	-0.0041337837
75	0xbd00c4b4	-0.03143759
76	0xbe316a7f	-0.17325781
77	0x3d6cb845	0.05779292
78	0xbe0d6afa	-0.1381034
79	0xbd4b80ad	-0.04968326
80	0x3d6f762d	0.05846231
81	0xbc70d8c5	-0.014700119
82	0x3d393f68	0.045226485
83	0xbd959576	-0.07303898
84	0x3ccf0136	0.025269132
85	0xbdb06a0d	-0.086139776
86	0x3cb6703a	0.02227031
87	0xbd2e9616	-0.0426236
88	0xb9d017a7	-0.00039690474
89	0xbd2020cb	-0.039093774
90	0x3c6af7b1	0.014341281
91	0x3d397770	0.04527992
92	0xbd3d5da7	-0.046231892
93	0x3ca247b6	0.019809585
94	0xbd8fff16	-0.07031076
95	0xbd4bb1cc	-0.049730107
96	0x3cdf2f42	0.027244214
97	0x3c92cff7	0.017921431
98	0xbd53e25c	-0.051729545
99	0xbcf187f9	-0.029483782
100	0xbd821d63	-0.06353261
101	0xbdeed5e0	-0.11661887
102	0xb9c9245b	-0.00038364794
103	0xbd12552b	-0.035725754
104	0x3d077475	0.033070046
105	0xbd238953	-0.039925884
106	0x3dde6065	0.108582295
107	0xbe470741	-0.19436361
108	0x3b019ad5	0.0019776125
109	0xbd8212ff	-0.063512795
110	0x3d2e56a9	0.042563114
111	0xbda77cd8	-0.08178109
112	0xbc031f43	-0.008003059
113	0xbda698de	-0.08134626
114	0xbe455c54	-0.19273502
115	0x3d4c7a01	0.04992104
116	0xbd831cfa	-0.06402011
117	0x3cda5887	0.026653541
118	0xbd2b4abb	-0.041819315
119	0x3cc86cf2	0.024466012
120	0xbcd74cf0	-0.026281804
121	0x3ddbe72b	0.10737451
122	0x3cc11c44	0.023573048
123	0x3d3bdbff	0.0458641
124	0x3dba52a3	0.09097793
125	0x3da7ba63	0.08189847
126	0x3e1f81da	0.15576878
127	0x3cdc7c94	0.026914872
128	0xbdb9e178	-0.09076208
129	0x3c89c71e	0.01681858
130	0x3dae8e8b	0.08523282
131	0x3cca8544	0.02472175
132	0xbd806b42	-0.06270458
133	0xbb0eb224	-0.002177366
134	0x3b85838c	0.0040745195
135	0xbcf79736	-0.03022347
136	0x3d53c9e8	0.051706225
137	0xbd2e72d7	-0.04258999
138	0xbdea3c5a	-0.114372924
139	0x3d42fbbe	0.04760336
140	0x3da5f1c0	0.08102751
141	0x3cf10d95	0.029425422
142	0x3dbd7967	0.09251671
143	0xbd66fbd0	-0.05639249
144	0x3d5f74e9	0.054554854
145	0xbde04884	-0.10951331
146	0xbbbf8da8	-0.005845744
147	0xbc8ba2e3	-0.017045444
148	0xbd6bb6d8	-0.05754742
149	0x3cc02c84	0.023458727
150	0x3cb3a2d0	0.021928221
151	0xbcd5ff87	-0.026122821
152	0xbe2638c6	-0.16232595
153	0x3e1fedc0	0.15618038
154	0x3d76a833	0.060219
155	0x3db8931d	0.09012435
156	0xbd41d850	-0.047325432
157	0xbd63fe32	-0.05566234
158	0xbcfcc763	-0.030856794
159	0x3d94014b	0.07226809
160	0x3d097c7f	0.033565994
161	0x3d3d3146	0.04618957
162	0xbca40130	-0.020020097
163	0x3d46054b	0.04834489
164	0xbb716b17	-0.0036837512
165	0xbcc34ffc	-0.02384185
166	0xbccd2caa	-0.025045712
167	0xbda69e9c	-0.08135721
168	0x3cadd793	0.021220958
169	0x3da9113a	0.08255239
170	0xbb13083c	-0.0022435328
171	0xbe2ffdc9	-0.17186655
172	0xbadcd0e7	-0.0016846926
173	0xbc29ccd8	-0.01036378
174	0xbde58a07	-0.11207967
175	0xbda96a45	-0.082722224
176	0x3c86dc3e	0.016462442
177	0xbcb224d3	-0.021746075
178	0xbab4167b	-0.001373961
179	0xbd1c05dd	-0.03809153
180	0xbd287b2f	-0.041133102
181	0x3d939af8	0.07207292
182	0x3c72a05a	0.014808739
183	0x3c3b7a20	0.011442691
184	0xbda55251	-0.08072341
185	0xbd660ec8	-0.05616644
186	0xbc995606	-0.018717777
187	0x3ca39fb2	0.01997361
188	0xbd72b9a2	-0.059259064
189	0xbbe8c645	-0.0071037137
190	0xbd591dc6	-0.05300691
191	0x3c540bee	0.012942297
192	0xbcff7c73	-0.031187272
193	0xbd57c2c6	-0.052675985
194	0xbdd9cedc	-0.106351584
195	0x3d59f39c	0.05321084
196	0x3d6ec8ac	0.058296844
197	0xbd9372e7	-0.0719965
198	0x3da340aa	0.07971318
199	0x3c069c51	0.00821598
200	0xbd9ef30f	-0.077612035
201	0xbdc93399	-0.098242946
202	0xbd6b27db	-0.057411056
203	0x3a7f8cd3	0.00097484625
204	0x3cb4176b	0.021983823
205	0xbcb4a966	-0.022053432
206	0x3d5fc8e1	0.054634932
207	0xbe0b334e	-0.1359379
208	0x3d0743e6	0.033023737
209	0xbb896774	-0.004193241
210	0xbdb1e251	-0.086857446
211	0x3b255dbf	0.002523288
212	0x3da9c95a	0.08290358
213	0x3a9b2e61	0.0011839384
214	0xbdddac03	-0.10823824
215	0x3d245a8b	0.04012541
216	0x3d5dc726	0.054145
217	0xbd219320	-0.03944695
218	0x3c2d92c6	0.010594076
219	0xbd6aed14	-0.057355
220	0x3d3edee7	0.046599295
221	0xbd869f00	-0.065732956
222	0xbb9f4cbc	-0.0048614424
223	0x3d9de066	0.07708816
224	0x3d1e4306	0.038638137
225	0x3c61f8ae	0.0137922
226	0x3c7bd7cf	0.015371277
227	0xbb28264b	-0.002565759
228	0x3c80a175	0.015701989
229	0xbd278e53	-0.040907215
230	0xbcdd5d45	-0.027022013
231	0x3d016441	0.03158975
232	0x3c1e0bac	0.0096463375
233	0xbd840ac4	-0.06447366
234	0xbba844d3	-0.0051351576
235	0xbc62b95c	-0.013838138
236	0x3a75ef98	0.00093817106
237	0xbd902f29	-0.07040245
238	0xbd84e2bb	-0.06488558
239	0x3d83bdb2	0.06432666
240	0x3a9d3405	0.0011993652
241	0x3d33f392	0.04393346
242	0x3da4aa16	0.08040254
243	0x3cd22f7e	0.025657412
244	0xbd119074	-0.03553815
245	0xbd25afe7	-0.040450957
246	0x3d7279e0	0.05919826
247	0x3cf1a62f	0.029498188
248	0x3a5dab1f	0.000845598
249	0x3d8acc8d	0.06777296
250	0x3cb8cc41	0.022558333
251	0xbdb87206	-0.09006123
252	0xbcb4a0ef	-0.022049395
253	0xbd2750bf	-0.04084849
254	0xbc668a36	-0.014071038
255	0x3c4615de	0.0120901745
